…
model.add(MaxPooling2D(2,2))
model.add(Conv2D(64,(3,3),activation='relu'))
model.add(MaxPooling2D(2,2))
model.add(Conv2D(128,(3,3),activation='relu'))
model.add(MaxPooling2D(2,2))
model.add(Conv2D(128,(3,3),activation='relu'))
model.add(MaxPooling2D(2,2))
model.add(Flatten())
model.add(Dense(512,activation='relu'))
model.add(Dense(1,activation='sigmoid'))
model.summary()
Model: "sequential"
_________________________________________________________________
Layer (type)                 Output Shape              Param #   
=================================================================
conv2d (Conv2D)              (None, 222, 222, 32)      896       
_________________________________________________________________
max_pooling2d (MaxPooling2D) (None, 111, 111, 32)      0         
_________________________________________________________________
conv2d_1 (Conv2D)            (None, 109, 109, 64)      18496     
_________________________________________________________________
max_pooling2d_1 (MaxPooling2 (None, 54, 54, 64)        0         
_________________________________________________________________
conv2d_2 (Conv2D)            (None, 52, 52, 128)       73856     
_________________________________________________________________
max_pooling2d_2 (MaxPooling2 (None, 26, 26, 128)       0         
_________________________________________________________________
conv2d_3 (Conv2D)            (None, 24, 24, 128)       147584    
_________________________________________________________________
max_pooling2d_3 (MaxPooling2 (None, 12, 12, 128)       0         
_________________________________________________________________
flatten (Flatten)            (None, 18432)             0         
_________________________________________________________________
dense (Dense)                (None, 512)               9437696   
_________________________________________________________________
dense_1 (Dense)              (None, 1)                 513       
=================================================================
Total params: 9,679,041
Trainable params: 9,679,041
Non-trainable params: 0
_________________________________________________________________
from tensorflow.keras import optimizers
model.compile(loss='binary_crossentropy',optimizer=optimizers.RMSprop(learning_rate=1e-3), metrics=['accuracy'])
history = model.fit_generator(train_generator,steps_per_epoch=train_generator.samples//20,epochs=10,validation_data=test_generator,validation_steps=test_generator.samples//20)
…
